…
",\n","    patience=5,\n","    verbose=1,\n","    mode=\"max\",\n","    restore_best_weights=True)"]},{"cell_type":"code","execution_count":null,"metadata":{"colab":{"base_uri":"https://localhost:8080/"},"id":"ohLIwj1Odt0Q","outputId":"d9077166-6225-4a96-ff46-d58b03993cba"},"outputs":[{"name":"stdout","output_type":"stream","text":["Model: \"sequential\"\n","_________________________________________________________________\n"," Layer (type)                Output Shape              Param #   \n","=================================================================\n"," conv2d (Conv2D)             (None, 148, 148, 32)      896       \n","                                                                 \n"," max_pooling2d (MaxPooling2  (None, 37, 37, 32)        0         \n"," D)                                                              \n","                                                                 \n"," batch_normalization (Batch  (None, 37, 37, 32)        128       \n"," Normalization)                                                  \n","                                                                 \n"," conv2d_1 (Conv2D)           (None, 35, 35, 64)        18496     \n","                                                                 \n"," max_pooling2d_1 (MaxPoolin  (None, 8, 8, 64)          0         \n"," g2D)                                                            \n","                                                                 \n"," batch_normalization_1 (Bat  (None, 8, 8, 64)          256       \n"," chNormalization)                                                \n","                                                                 \n"," conv2d_2 (Conv2D)           (None, 6, 6, 128)         73856     \n","                                                                 \n"," max_pooling2d_2 (MaxPoolin  (None, 1, 1, 128)         0         \n"," g2D)                                                            \n","                                                                 \n"," batch_normalization_2 (Bat  (None, 1, 1, 128)         512       \n"," chNormalization)                                                \n","                                                                 \n"," flatten (Flatten)           (None, 128)               0         \n","                                                                 \n"," dense (Dense)               (None, 120)               15480     \n","                                                                 \n"," dropout (Dropout)           (None, 120)               0         \n","                                                                 \n"," dense_1 (Dense)             (None, 6)                 726       \n","                                                                 \n","=================================================================\n","Total params: 110350 (431.05 KB)\n","Trainable params: 109902 (429.30 KB)\n","Non-trainable params: 448 (1.75 KB)\n","_________________________________________________________________\n","None\n"]}],"source":["print(Model.summary())"]},{"cell_type"
…
